…
hyperparameters: lr0=0.01, lrf=0.01, momentum=0.937, weight_decay=0.0005, warmup_epochs=3.0, warmup_momentum=0.8, warmup_bias_lr=0.1, box=0.05, cls=0.5, cls_pw=1.0, obj=1.0, obj_pw=1.0, iou_t=0.2, anchor_t=4.0, fl_gamma=0.0, hsv_h=0.015, hsv_s=0.7, hsv_v=0.4, degrees=0.0, translate=0.1, scale=0.5, shear=0.0, perspective=0.0, flipud=0.0, fliplr=0.5, mosaic=1.0, mixup=0.0, copy_paste=0.0
Weights & Biases: run 'pip install wandb' to automatically track and visualize YOLOv5  runs (RECOMMENDED)
TensorBoard: Start with 'tensorboard --logdir runs\train', view at http://localhost:6006/
Overriding model.yaml nc=5 with nc=3

                 from  n    params  module                                  arguments                     
  0                -1  1      3520  models.common.Conv                      [3, 32, 6, 2, 2]              
  1                -1  1     18560  models.common.Conv                      [32, 64, 3, 2]                
  2                -1  1     18816  models.common.C3                        [64, 64, 64, 1]               
  3                -1  1     73984  models.common.Conv                      [64, 128, 3, 2]               
  4                -1  2    115712  models.common.C3                        [128, 128, 128, 2]            
  5                -1  1    295424  models.common.Conv                      [128, 256, 3, 2]              
  6                -1  3    625152  models.common.C3                        [256, 256, 256, 3]            
  7                -1  1   1180672  models.common.Conv                      [256, 512, 3, 2]              
  8                -1  1   1577216  models.common.C3TR                      [512, 512, 1]                 
  9                -1  1    656896  models.common.SPPF                      [512, 512, 5]                 
 10                -1  1    131584  models.common.Conv                      [512, 256, 1, 1]              
 11                -1  1         0  torch.nn.modules.upsampling.Upsample    [None, 2, 'nearest']          
 12           [-1, 6]  1         0  models.common.Concat                    [1]                           
 13                -1  1    361984  models.common.C3                        [512, 256, 256, 1, False]     
 14                -1  1     33024  models.common.Conv                      [256, 128, 1, 1]              
 15                -1  1         0  torch.nn.modules.upsampling.Upsample    [None, 2, 'nearest']          
 16           [-1, 4]  1         0  models.common.Concat                    [1]                           
 17                -1  1    435456  models.common.GAM_Attention             [256, 256]                    
 18                -1  1     90880  models.common.C3                        [256, 128, 128, 1, False]     
 19                -1  1    147712  models.common.Conv                      [128, 128, 3, 2]              
 20          [-1, 14]  1         0  models.common.Concat                    [1]                           
 21                -1  1    435456  models.common.GAM_Attention             [256, 256]                    
 22                -1  1    296448  models.common.C3                        [256, 256, 256, 1, False]     
 23                -1  1    590336  models.common.Conv                      [256, 256, 3, 2]              
 24          [-1, 10]  1         0  models.common.Concat                    [1]                           
 25                -1  1   1739264  models.common.GAM_Attention             [512, 512]                    
 26                -1  1   1182720  models.common.C3                        [512, 512, 512, 1, False]     
 27      [18, 22, 26]  1   4144254  models.common.ASFFV5                    [0, 512, 0.5]                 
 28      [18, 22, 26]  1   1023614  models.common.ASFFV5                    [1, 256, 0.5]                 
 29      [18, 22, 26]  1    249726  models.common.ASFFV5                    [2, 128, 0.5]                 
 30      [29, 28, 27]  1     21576  models.yolo.Detect                      [3, [[10, 13, 16, 30, 33, 23], [30, 61, 62, 45, 59, 119], [116, 90, 156, 198, 373, 326]], [128, 256, 512]]
YOLOv5s_GAM_C3_AS summary: 395 layers, 15449986 parameters, 15449986 gradients

Scaled weight_decay = 0.0005
optimizer: SGD with parameter groups 82 weight (no decay), 100 weight, 101 bias
…
